…
 'test': False,
 'test_fold_index': None,
 'train_data_size': None,
 'undirected': False,
 'use_input_features': True,
 'val_fold_index': None,
 'warmup_epochs': 2.0,
 'weights_ffn_num_layers': 2}
Setting molecule featurization parameters to default.
Loading data
Number of tasks = 9
Fold 0
Splitting data with seed 42
Total size = 5,977 | train size = 5,977 | val size = 2,235 | test size = 1,739
Fitting scaler
Building model 0
MoleculeModel(
  (encoder): MPN(
    (encoder): ModuleList(
      (0): MPNEncoder(
        (dropout): Dropout(p=0.1, inplace=False)
        (act_func): ReLU()
        (W_i): Linear(in_features=147, out_features=600, bias=False)
        (W_h): Linear(in_features=600, out_features=600, bias=False)
        (W_o): Linear(in_features=733, out_features=600, bias=True)
      )
    )
  )
  (readout): Sequential(
    (0): Dropout(p=0.1, inplace=False)
    (1): Linear(in_features=621, out_features=600, bias=True)
    (2): ReLU()
    (3): Dropout(p=0.1, inplace=False)
    (4): Linear(in_features=600, out_features=600, bias=True)
    (5): ReLU()
    (6): Dropout(p=0.1, inplace=False)
    (7): Linear(in_features=600, out_features=9, bias=True)
  )
)
Number of parameters = 1,628,409
Moving model to cuda
Epoch 0
Loss = 1.1060e+00, PNorm = 52.2049, GNorm = 3.4368, lr_0 = 1.4160e-04
Loss = 1.0196e+00, PNorm = 52.2062, GNorm = 2.3078, lr_0 = 1.7941e-04
Loss = 9.3796e-01, PNorm = 52.2094, GNorm = 2.1546, lr_0 = 2.1723e-04
Loss = 9.6021e-01, PNorm = 52.2137, GNorm = 3.5080, lr_0 = 2.5504e-04
Loss = 1.0643e+00, PNorm = 52.2204, GNorm = 1.4899, lr_0 = 2.9286e-04
…
Delivery_target_generic_cell 0: 31.34%, 1: 68.66%
Delivery_target_macrophage 0: 99.70%, 1: 0.30%
Delivery_target_lung_epithelium 0: 82.69%, 1: 17.31%
Delivery_target_liver 0: 92.95%, 1: 7.05%
Delivery_target_lung 0: 99.60%, 1: 0.40%
Delivery_target_spleen 0: 98.17%, 1: 1.83%
Delivery_target_muscle 0: 96.34%, 1: 3.66%
Total size = 6,059 | train size = 6,059 | val size = 2,235 | test size = 1,739
Building model 0
MoleculeModel(
  (sigmoid): Sigmoid()
  (encoder): MPN(
    (encoder): ModuleList(
      (0): MPNEncoder(
        (dropout): Dropout(p=0.1, inplace=False)
        (act_func): ReLU()
        (W_i): Linear(in_features=147, out_features=600, bias=False)
        (W_h): Linear(in_features=600, out_features=600, bias=False)
        (W_o): Linear(in_features=733, out_features=600, bias=True)
      )
    )
  )
  (readout): Sequential(
    (0): Dropout(p=0.1, inplace=False)
    (1): Linear(in_features=621, out_features=600, bias=True)
    (2): ReLU()
    (3): Dropout(p=0.1, inplace=False)
    (4): Linear(in_features=600, out_features=600, bias=True)
    (5): ReLU()
    (6): Dropout(p=0.1, inplace=False)
    (7): Linear(in_features=600, out_features=15, bias=True)
  )
)
Number of parameters = 1,632,015
Moving model to cuda
Epoch 0
Loss = 5.5898e-01, PNorm = 52.3241, GNorm = 0.8547, lr_0 = 1.4091e-04
Loss = 2.3494e-01, PNorm = 52.3550, GNorm = 0.5592, lr_0 = 1.7810e-04
Loss = 2.1257e-01, PNorm = 52.3640, GNorm = 0.3198, lr_0 = 2.1529e-04
Loss = 1.4835e-01, PNorm = 52.3741, GNorm = 0.2144, lr_0 = 2.5248e-04
Loss = 1.3298e-01, PNorm = 52.3923, GNorm = 0.3033, lr_0 = 2.8967e-04
…
