…
 'test': False,
 'test_fold_index': None,
 'train_data_size': None,
 'undirected': False,
 'use_input_features': True,
 'val_fold_index': None,
 'warmup_epochs': 2.0,
 'weights_ffn_num_layers': 2}
Setting molecule featurization parameters to default.
Loading data
Number of tasks = 1
Fold 0
Splitting data with seed 42
Total size = 5,942 | train size = 5,942 | val size = 1,658 | test size = 2,037
Fitting scaler
Building model 0
MoleculeModel(
  (encoder): MPN(
    (encoder): ModuleList(
      (0): MPNEncoder(
        (dropout): Dropout(p=0.1, inplace=False)
        (act_func): ReLU()
        (W_i): Linear(in_features=147, out_features=600, bias=False)
        (W_h): Linear(in_features=600, out_features=600, bias=False)
        (W_o): Linear(in_features=733, out_features=600, bias=True)
      )
    )
  )
  (readout): Sequential(
    (0): Dropout(p=0.1, inplace=False)
    (1): Linear(in_features=636, out_features=600, bias=True)
    (2): ReLU()
    (3): Dropout(p=0.1, inplace=False)
    (4): Linear(in_features=600, out_features=600, bias=True)
    (5): ReLU()
    (6): Dropout(p=0.1, inplace=False)
    (7): Linear(in_features=600, out_features=1, bias=True)
  )
)
Number of parameters = 1,632,601
Moving model to cuda
Epoch 0
Loss = 1.0931e+00, PNorm = 52.0723, GNorm = 4.2390, lr_0 = 1.4195e-04
Loss = 1.0617e+00, PNorm = 52.0739, GNorm = 9.9478, lr_0 = 1.8008e-04
Loss = 1.0872e+00, PNorm = 52.0770, GNorm = 4.4096, lr_0 = 2.1822e-04
Loss = 1.1984e+00, PNorm = 52.0815, GNorm = 3.9285, lr_0 = 2.5636e-04
Loss = 9.2683e-01, PNorm = 52.0891, GNorm = 3.5603, lr_0 = 2.9449e-04
…
 'test': False,
 'test_fold_index': None,
 'train_data_size': None,
 'undirected': False,
 'use_input_features': True,
 'val_fold_index': None,
 'warmup_epochs': 2.0,
 'weights_ffn_num_layers': 2}
Setting molecule featurization parameters to default.
Loading data
Number of tasks = 7
Fold 0
Splitting data with seed 42
Total size = 6,321 | train size = 6,321 | val size = 1,751 | test size = 1,916
Fitting scaler
Building model 0
MoleculeModel(
  (encoder): MPN(
    (encoder): ModuleList(
      (0): MPNEncoder(
        (dropout): Dropout(p=0.1, inplace=False)
        (act_func): ReLU()
        (W_i): Linear(in_features=147, out_features=600, bias=False)
        (W_h): Linear(in_features=600, out_features=600, bias=False)
        (W_o): Linear(in_features=733, out_features=600, bias=True)
      )
    )
  )
  (readout): Sequential(
    (0): Dropout(p=0.1, inplace=False)
    (1): Linear(in_features=622, out_features=600, bias=True)
    (2): ReLU()
    (3): Dropout(p=0.1, inplace=False)
    (4): Linear(in_features=600, out_features=600, bias=True)
    (5): ReLU()
    (6): Dropout(p=0.1, inplace=False)
    (7): Linear(in_features=600, out_features=7, bias=True)
  )
)
Number of parameters = 1,627,807
Epoch 0
Loss = 9.3780e-01, PNorm = 52.1875, GNorm = 2.3355, lr_0 = 1.3929e-04
Loss = 9.6514e-01, PNorm = 52.1891, GNorm = 2.0209, lr_0 = 1.7500e-04
Loss = 1.0448e+00, PNorm = 52.1919, GNorm = 2.0862, lr_0 = 2.1071e-04
Loss = 1.0145e+00, PNorm = 52.1971, GNorm = 2.9328, lr_0 = 2.4643e-04
Loss = 1.0178e+00, PNorm = 52.2038, GNorm = 2.8617, lr_0 = 2.8214e-04
…
 'task_names': ['quantified_total_luminescence'],
 'test': False,
 'test_fold_index': None,
 'train_data_size': None,
 'undirected': False,
 'use_input_features': True,
 'val_fold_index': None,
 'warmup_epochs': 2.0,
 'weights_ffn_num_layers': 2}
Setting molecule featurization parameters to default.
Loading data
Number of tasks = 1
Fold 0
Splitting data with seed 42
Total size = 131 | train size = 131 | val size = 2,088 | test size = 1,797
Fitting scaler
Building model 0
MoleculeModel(
  (encoder): MPN(
    (encoder): ModuleList(
      (0): MPNEncoder(
        (dropout): Dropout(p=0.1, inplace=False)
        (act_func): ReLU()
        (W_i): Linear(in_features=147, out_features=600, bias=False)
        (W_h): Linear(in_features=600, out_features=600, bias=False)
        (W_o): Linear(in_features=733, out_features=600, bias=True)
      )
    )
  )
  (readout): Sequential(
    (0): Dropout(p=0.1, inplace=False)
    (1): Linear(in_features=621, out_features=600, bias=True)
    (2): ReLU()
    (3): Dropout(p=0.1, inplace=False)
    (4): Linear(in_features=600, out_features=600, bias=True)
    (5): ReLU()
    (6): Dropout(p=0.1, inplace=False)
    (7): Linear(in_features=600, out_features=1, bias=True)
  )
)
Number of parameters = 1,623,601
Epoch 0
Validation rmse = 0.827116
Epoch 1
Validation rmse = 0.887506
Epoch 2
Validation rmse = 0.812480
Epoch 3
Loss = 7.3097e-01, PNorm = 52.1552, GNorm = 1.6767, lr_0 = 8.0584e-04
Validation rmse = 0.898242
Epoch 4
Validation rmse = 0.880081
Epoch 5
Validation rmse = 0.828844
Epoch 6
Validation rmse = 0.819728
Epoch 7
…
 'test': False,
 'test_fold_index': None,
 'train_data_size': None,
 'undirected': False,
 'use_input_features': True,
 'val_fold_index': None,
 'warmup_epochs': 2.0,
 'weights_ffn_num_layers': 2}
Setting molecule featurization parameters to default.
Loading data
Number of tasks = 9
Fold 0
Splitting data with seed 42
Total size = 6,136 | train size = 6,136 | val size = 2,088 | test size = 1,797
Fitting scaler
Building model 0
MoleculeModel(
  (encoder): MPN(
    (encoder): ModuleList(
      (0): MPNEncoder(
        (dropout): Dropout(p=0.1, inplace=False)
        (act_func): ReLU()
        (W_i): Linear(in_features=147, out_features=600, bias=False)
        (W_h): Linear(in_features=600, out_features=600, bias=False)
        (W_o): Linear(in_features=733, out_features=600, bias=True)
      )
    )
  )
  (readout): Sequential(
    (0): Dropout(p=0.1, inplace=False)
    (1): Linear(in_features=621, out_features=600, bias=True)
    (2): ReLU()
    (3): Dropout(p=0.1, inplace=False)
    (4): Linear(in_features=600, out_features=600, bias=True)
    (5): ReLU()
    (6): Dropout(p=0.1, inplace=False)
    (7): Linear(in_features=600, out_features=9, bias=True)
  )
)
Number of parameters = 1,628,409
Epoch 0
Loss = 1.0996e+00, PNorm = 52.2042, GNorm = 2.1121, lr_0 = 1.4057e-04
Loss = 9.0862e-01, PNorm = 52.2063, GNorm = 2.3118, lr_0 = 1.7746e-04
Loss = 1.0519e+00, PNorm = 52.2091, GNorm = 4.0737, lr_0 = 2.1434e-04
Loss = 9.2787e-01, PNorm = 52.2133, GNorm = 1.5717, lr_0 = 2.5123e-04
Loss = 1.2119e+00, PNorm = 52.2190, GNorm = 2.0580, lr_0 = 2.8811e-04
…
Delivery_target_generic_cell 0: 34.58%, 1: 65.42%
Delivery_target_macrophage 0: 99.72%, 1: 0.28%
Delivery_target_lung_epithelium 0: 79.71%, 1: 20.29%
Delivery_target_liver 0: 92.97%, 1: 7.03%
Delivery_target_lung 0: 99.32%, 1: 0.68%
Delivery_target_spleen 0: 97.85%, 1: 2.15%
Delivery_target_muscle 0: 96.46%, 1: 3.54%
Total size = 6,359 | train size = 6,359 | val size = 1,753 | test size = 1,963
Building model 0
MoleculeModel(
  (sigmoid): Sigmoid()
  (encoder): MPN(
    (encoder): ModuleList(
      (0): MPNEncoder(
        (dropout): Dropout(p=0.1, inplace=False)
        (act_func): ReLU()
        (W_i): Linear(in_features=147, out_features=600, bias=False)
        (W_h): Linear(in_features=600, out_features=600, bias=False)
        (W_o): Linear(in_features=733, out_features=600, bias=True)
      )
    )
  )
  (readout): Sequential(
    (0): Dropout(p=0.1, inplace=False)
    (1): Linear(in_features=621, out_features=600, bias=True)
    (2): ReLU()
    (3): Dropout(p=0.1, inplace=False)
    (4): Linear(in_features=600, out_features=600, bias=True)
    (5): ReLU()
    (6): Dropout(p=0.1, inplace=False)
    (7): Linear(in_features=600, out_features=15, bias=True)
  )
)
Number of parameters = 1,632,015
Epoch 0
Loss = 5.5938e-01, PNorm = 52.3240, GNorm = 0.8388, lr_0 = 1.3898e-04
Loss = 2.5362e-01, PNorm = 52.3540, GNorm = 0.5459, lr_0 = 1.7441e-04
Loss = 2.0791e-01, PNorm = 52.3631, GNorm = 0.2546, lr_0 = 2.0984e-04
Loss = 1.5388e-01, PNorm = 52.3729, GNorm = 0.2739, lr_0 = 2.4528e-04
Loss = 1.4207e-01, PNorm = 52.3930, GNorm = 0.2498, lr_0 = 2.8071e-04
…
